tools/models/model-DAVE2v3-lr1e4-100epoch-batch64-lossMSE-82Ksamples-INDUSTRIALandHIROCHIandUTAH-135x240-noiseflipblur.pt (torch, 567803 bytes, 13 tensors)

weight f4 [16, 3, 3, 3]
0.04634063 0.0035081329 -0.1224903 0.16390014 -0.11004273 -0.108566195 -0.053227585 -0.1664838
0.06141796 0.06818655 0.21559675 0.036133323 0.15357342 -0.07041343 0.1009577 0.15357721
-0.01588291 -0.023250807 -0.042843517 0.11737186 -0.18317163 0.071287766 -0.04320783 -0.17880578
-0.13421555 -0.20602866 -0.044895325 0.16550344 -0.1810688 -0.104519 0.006325223 -0.055693284
0.18080933 0.16211917 0.022976357 0.023512792 0.039574403 0.064083785 0.15670027 0.004325977
-0.09978847 -0.13477416 -0.11932947 0.1096529 0.022532998 0.0920243 -0.055736072 0.11791545
0.030667603 0.18794285 -0.02387114 0.050099205 0.008528809 0.048938166 0.14746152 0.11353617
-0.071916446 0.19454901 0.10445037 0.06558926 0.08745251 0.08026735 -0.13800846 -0.08840901
-0.1385615 0.17618173 -0.053541988 -0.03427552 0.030513464 0.19418435 0.0029331013 0.011360215
-0.15350895 -0.002201 -0.19838892 -0.14493003 0.12795535 0.04414913 -0.104577 -0.1380927
-0.19520319 0.10724133 0.08441298 0.1912954 0.17269921 0.07726297 -0.11756702 0.03019563
0.023857899 0.07386278 0.12850454 0.1499622 -0.1094641 0.13590734 -0.023907406 0.058366645
0.050902106 -0.12659018 0.059784587 -0.19590022 -0.10232282 0.08068616 -0.13180622 -0.17248015
0.09885763 -0.08677365 -0.04771184 0.093645364 -0.07997009 0.10422767 0.13191299 0.17239936
0.04525344 -0.12034954 0.09358308 -0.123426005 -0.14881304 0.0651351 -0.19645925 -0.04019296
0.14841674 -0.14174254 -0.032135878 -0.10342562 0.029830743 -0.005781674 0.095084436 -0.09570211
0.15206565 0.22045045 0.04652785 -0.07049992 0.03167215 0.16002408 -0.07674852 0.09942052
-0.1691451 0.058024075 0.19466999 -0.011360541 0.21884125 -0.04230685 -0.118978485 0.19556507
-0.1991931 -0.12635931 -0.19243386 0.09034316 -0.11196024 0.08631369 -0.12862743 0.2006787
-0.1006682 0.14069849 -0.099478096 -0.20622794 0.10446483 -0.02150581 0.13386448 0.041141268
0.14778182 -0.17789346 -0.016639514 0.05142586 -0.0069404957 -0.045448184 -0.015754513 0.055855382
-0.0035982942 -0.153717 -0.017658655 -0.19380294 0.0014635865 0.046555545 -0.07103416 -0.15162794
0.14640664 -0.104561724 0.045189034 -0.016137341 -0.14838888 0.159157 -0.12985839 -0.15723726
0.14982706 -0.16566704 -0.13071728 0.0029564148 -0.18381658 -0.017636135 0.12932359 -0.09661009
0.12673527 -0.10597979 -0.14111815 -0.110737324 -0.17498168 -0.0131064905 -0.14642668 0.113548644
0.08106267 0.0516768 -0.081059836 -0.14835851 -0.060974285 0.0129448045 0.13482301 0.07438636
0.13844648 0.1745189 -0.08316788 0.021934949 0.10656138 0.18272872 0.15115751 0.19253463
0.17611247 -0.07511315 -0.12065937 -0.19835381 0.07852648 -0.11015718 -0.08567599 0.007213844
-0.09862598 0.1141173 -0.049575005 0.1823997 -0.18962087 0.038449116 0.04346752 -0.07326852
0.19322203 -8.487911e-05 0.0020306692 0.11934094 0.106232345 0.0695259 -0.0041201846 -0.16688888
0.16454348 -0.11920698 -0.07258461 -0.122638635 0.11822673 0.051056944 -0.083944336 0.027297486
0.09471872 0.20339625 0.2159627 -0.0029396343 -0.1139347 0.16786633 0.065858684 -0.07169731
00000000: accf 3d3d b4e8 653b 32dc fabd 70d5 273e
00000010: 155e e1bd f457 debd 2b05 5abd bb7a 2abe
00000020: 6691 7b3d 64a5 8b3d 65c5 5c3e 8900 143d
00000030: 5a42 1d3e eb34 90bd e9c2 ce3d 5843 1d3e
00000040: e01c 82bc 7a78 bebc af7c 2fbd a860 f03d
00000050: 5891 3bbe 52ff 913d b2fa 30bd dd18 37be
00000060: cd6f 09be 2df9 52be 29e4 37bd bc79 293e
00000070: 196a 39be 0f0e d6bd d143 cf3b a41e 64bd
00000080: 1526 393e 9102 263e ea38 bc3c e69d c03c
00000090: c518 223d 5c3e 833d 0976 203e edc0 8d3b
000000a0: e65d ccbd 3d02 0abe 0263 f4bd b391 e03d
000000b0: 1f97 b83c 3c77 bc3d 824b 64bd a87d f13d
000000c0: a03a fb3c 1774 403e 698d c3bc d334 4d3d
000000d0: 6bbc 0b3c 6373 483d 2700 173e a785 e83d
000000e0: ee48 93bd db37 473e 13ea d53d a953 863d
000000f0: 4d1a b33d 3563 a43d 1752 0dbe c80f b5bd
00000100: 11e3 0dbe fc68 343e d84e 5bbd 7d64 0cbd
00000110: 5ff7 f93c 43d8 463e 4639 403b 3220 3a3c
00000120: 7331 1dbe a73e 10bb 7726 4bbe 8a68 14be
00000130: ba06 033e b8d5 343d 772c d6bd 2c68 0dbe
00000140: 58e3 47be 58a1 db3d b6e0 ac3d f1e2 433e
00000150: 10d8 303e 0c3c 9e3d fac6 f0bd d35c f73c
00000160: a471 c33c 5f45 973d b296 033e b18f 193e
00000170: b72e e0bd 4b2b 0b3e 77d9 c3bc dd11 6f3d
00000180: ba7e 503d dba0 01be afe0 743d 119a 48be
00000190: a08e d1bd c93e a53d 36f8 06be a39e 30be
000001a0: de75 ca3d 62b6 b1bd 7e6d 43bd 24c9 bf3d
000001b0: 5cc7 a3bd 5175 d53d 3314 073e 7589 303e
000001c0: ac5b 393d d279 f6bd 7ca8 bf3d c6c6 fcbd
000001d0: 7262 18be 8d65 853d 9d2c 49be 60a1 24bd
000001e0: 8ffa 173e f524 11be e9a0 03bd d0d0 d3bd
000001f0: 9a5f f43c 3274 bdbb a1bb c23d 78ff c3bd
00000200: 19b7 1b3e c3bd 613e fd93 3e3d 4362 90bd
00000210: a8ba 013d 5add 233e 542e 9dbd fc9c cb3d
00000220: 6034 2dbe a7aa 6d3d 9257 473e 9021 3abc
00000230: ec17 603e f349 2dbd feaa f3bd 3642 483e
00000240: 47f9 4bbe 5664 01be 620d 45be d605 b93d
00000250: 694b e5bd 3bc5 b03d e9b6 03be b87e 4d3e
00000260: 212b cebd 4413 103e 2cbb cbbd 6b2d 53be
00000270: a8f1 d53d f42c b0bc c513 093e bf83 283d
00000280: 1e54 173e b429 36be 974f 88bc eca3 523d
00000290: 196d e3bb e027 3abd 9c0f 81bc 9dc8 643d
000002a0: 5cd1 6bbb fd67 1dbe e2a8 90bc 4774 46be
000002b0: d0d5 bf3a 07b1 3e3d 5c7a 91bd 5b44 1bbe
000002c0: 9feb 153e 7524 d6bd 2318 393d 7532 84bc
000002d0: 41f3 17be 0dfa 223e 99f9 04be ce02 21be
000002e0: 446c 193e 9fa4 29be c0da 05be 69c0 413b
000002f0: 6a3a 3cbe a879 90bc 676d 043e 83db c5bd
00000300: e4c6 013e ef0b d9bd 4781 10be 40ca e2bd
00000310: 662e 33be 9bbc 56bc e0f0 15be 318c e83d
00000320: 2f04 a63d 0dab 533d b302 a6bd 4beb 17be
00000330: 2cc0 79bd 7216 543c 0b0f 0a3e e057 983d
00000340: eac4 0d3e 15b5 323e ec53 aabd ecb0 b33c
00000350: da3c da3d 3d1d 3b3e 09c9 1a3e cc27 453e
00000360: d456 343e ecd4 99bd 431c f7bd 431d 4bbe
00000370: 7ed2 a03d 169a e1bd e576 afbd 1c62 ec3b
00000380: 6bfc c9bd 55b6 e93d 290f 4bbd fdc6 3a3e
00000390: f92b 42be d27c 1d3d 000b 323d ce0d 96bd
000003a0: ffdb 453e 2001 b2b8 fa14 053b 0669 f43d
000003b0: 5890 d93d 9863 8e3d 9d02 87bb ebe4 2abe
000003c0: 167e 283e ca22 f4bd 3da7 94bd f729 fbbd
000003d0: db20 f23d 1621 513d 02eb abbd fa9e df3c
000003e0: e3fb c13d 1b47 503e 5325 5d3e e1a6 40bb
000003f0: 9956 e9bd 27e5 2b3e ebe0 863d 0ad6 92bd

bias f4 [16]
0.07028368 -0.09770468 0.027258098 -0.087067 -0.019821575 -0.008725699 -0.021079788 -0.014143003
0.034694605 0.02122966 -0.018970676 0.038327374 -0.052814204 0.05196486 0.074937 -0.018194837
00000000: e4f0 8f3d 6419 c8bd 604c df3c 2f50 b2bd
00000010: db60 a2bc 3cf6 0ebc 85af acbc 0eb8 67bc
00000020: ee1b 0e3d d3e9 ad3c 6468 9bbc 2afd 1c3d
00000030: b553 58bd 1bd9 543d 9278 993d 570d 95bc

weight f4 [32, 16, 3, 3]
0.0802842 0.046995796 0.014583121 0.0036285836 0.1171197 0.13354406 0.097732335 0.18838763
0.049373146 0.060250152 -0.110910885 -0.13805479 -0.05454412 -0.07874553 -0.09868261 -0.06121307
0.04795643 0.015665937 -0.081719294 0.040615793 0.10776216 0.13448495 -0.0661841 0.11427231
0.07763155 0.120203555 -0.047119886 -0.0685133 -0.07541708 0.06613516 0.111920215 -0.0125320675
-0.033593256 0.067601405 0.019935329 -0.050352715 -0.03923149 0.066753455 -0.051009953 -0.07151276
0.09735224 0.10385801 0.106118605 0.12936088 0.05313725 -0.062035646 -0.13849261 -0.06548126
0.08917838 0.08575859 -0.01255889 0.049455628 0.03105793 0.21696156 -0.0920222 0.0039754254
-0.019028112 -0.008524737 0.0705637 -0.08851971 0.0029191033 -0.018742783 -0.040268935 -0.005945173
-0.0015174814 -0.06376859 0.041462947 -0.02227536 -0.01362842 -0.038717274 -0.019889362 -0.072509386
-0.03958939 -0.05004413 -0.023674157 -0.00895742 0.006687148 0.10244252 0.13767092 0.21438394
0.09353542 0.010766747 0.07940002 0.03500463 0.17359999 0.06606341 0.07679653 0.11339987
-0.10503787 -0.096681274 -0.017446287 0.027236886 0.022904918 0.012048 -0.08445425 0.08018901
0.022642506 0.03396464 -0.008023695 0.06866271 -0.03474509 -0.0037439505 0.007988944 -0.0054233633
0.06231524 -0.089834355 0.12205948 0.120515384 0.11921775 0.022049047 -0.08209645 -0.0152175
0.0030003106 -0.016104268 -0.0038520617 0.09799284 -0.115327515 -0.06811949 -0.07125345 -0.12558155
-0.0054635117 0.088877805 -0.042304434 0.108484425 -0.016904775 -0.014464088 -0.06828114 0.109853745
-0.014708659 -0.10354795 0.056813736 0.17136441 0.1074335 0.042916607 0.046509765 -0.035013705
0.03455345 -0.09905783 -0.030347474 0.05092218 0.036632136 -0.072692886 0.09126408 0.011732663
0.034610346 0.029105501 -0.10766544 -0.14693022 -0.0501321 -0.11819521 -0.0781587 -0.1800148
-0.014197685 0.050988354 0.12277054 0.011413692 -0.10738246 0.032661047 -0.040215217 -0.1115389
-0.10363697 -0.13477984 0.08650195 -0.08595225 -0.14737782 -0.021431718 0.12936375 0.020321684
-0.019458303 0.032145597 -0.0414106 0.03994537 0.12590136 0.023971925 0.069198094 0.014555551
0.11636602 0.028681217 -0.08799864 -0.035329044 0.05665753 0.0025806846 -0.02525664 0.0064566806
-0.012179891 -0.07763511 -0.12590408 -0.020650702 -0.085943595 -0.026762243 -0.22927874 0.057432212
-0.068892 -0.13492616 0.09866658 0.10717268 -0.06607004 -0.0017807554 -0.037453268 -0.0012350493
0.071365714 -0.021915505 0.077455215 -0.05519661 0.03247324 0.026069636 0.026701832 0.0125213135
-0.0998468 -0.06354334 0.0012868519 0.15461572 0.11589872 0.04559206 0.019151323 0.084143415
0.015135195 0.077315494 -0.12984593 0.11106944 -0.032149177 0.11848097 0.037081245 0.13220862
-0.13828997 -0.07946836 0.03269076 0.0032310726 0.04637182 -0.24174277 -0.17765146 -0.11517512
0.07388436 -0.09738643 0.10113282 -0.0036314274 0.091903925 0.015434685 0.08603357 0.084351406
-0.14565262 -0.025154147 0.11295234 -0.009856331 0.06887361 -0.060161326 -0.19815433 -0.16534165
-0.10500899 -0.059524834 -0.011899188 -0.11834433 0.04375622 0.11933761 0.07653991 -0.12403115
00000000: 0b6c a43d aa7e 403d 0bee 6e3c 88cd 6d3b
00000010: 74dc ef3d c6bf 083e e427 c83d b0e8 403e
00000020: 7f3b 4a3d ddc8 763d 3f25 e3bd 3c5e 0dbe
00000030: a869 5fbd 5645 a1bd 1c1a cabd 8eba 7abd
00000040: f66d 443d da55 803c 725c a7bd bf5c 263d
00000050: 68b2 dc3d 6cb6 093e 888b 87bd 9a07 ea3d
00000060: 4afd 9e3d 482d f63d c800 41bd b350 8cbd
00000070: 4574 9abd df71 873d 6d36 e53d 4d53 4dbc
00000080: 1599 09bd 9b72 8a3d 6a4f a33c a63e 4ebd
00000090: 33b1 20bd 09b6 883d d0ef 50bd 4875 92bd
000000a0: 9c60 c73d 82b3 d43d b654 d93d 2e77 043e
000000b0: 72a6 593d 1719 7ebd 02d1 0dbe 0a1b 86bd
000000c0: 28a3 b63d 33a2 af3d cdc3 4dbc fc91 4a3d
000000d0: 336d fe3c 2c2b 5e3e 2376 bcbd 4944 823b
000000e0: d8e0 9bbc 57ab 0bbc b383 903d d249 b5bd
000000f0: 6d4e 3f3b 778a 99bc 0af1 24bd bacf c2bb
00000100: 3ae6 c6ba 1b99 82bd 0dd5 293d d17a b6bc
00000110: bd49 5fbc 0196 1ebd 04ef a2bc cd7f 94bd
00000120: 7c28 22bd 13fb 4cbd 4ef0 c1bc 24c2 12bc
00000130: dd1f db3b 62cd d13d 9bf9 0c3e 7787 5b3e
00000140: 808f bf3d 0367 303c 7a9c a23d 0461 0f3d
00000150: 32c4 313e 414c 873d 8047 9d3d 313e e83d
00000160: 181e d7bd d500 c6bd 84eb 8ebc e41f df3c
00000170: 18a3 bb3c f964 453c 5af6 acbd 233a a43d
00000180: c77c b93c 821e 0b3d d175 03bc 099f 8c3d
00000190: de50 0ebd 115d 75bb 0fe4 023c 78b6 b1bb
000001a0: 443e 7f3d 13fb b7bd 52fa f93d c5d0 f63d
000001b0: 7028 f43d 34a0 b43c 2f22 a8bd d252 79bc
000001c0: dca0 443b 19ed 83bc df72 7cbb 78b0 c83d
000001d0: d530 ecbd 3b82 8bbd 54ed 91bd 7398 00be
000001e0: 4207 b3bb 9105 b63d 6a47 2dbd 152d de3d
000001f0: e27b 8abc c8fa 6cbc fbd6 8bbd 00fb e03d
00000200: 96fc 70bc f310 d4bd 85b5 683d 277a 2f3e
00000210: 1806 dc3d 53c9 2f3d 0681 3e3d 886a 0fbd
00000220: eb87 0d3d d5de cabd 449b f8bc c793 503d
00000230: 940b 163d 02e0 94bd a9e8 ba3d 5b3a 403c
00000240: 94c3 0d3d a96e ee3c b37f dcbd e074 16be
00000250: 5157 4dbd 5510 f2bd ab11 a0bd cd55 38be
00000260: 689d 68bc 2ad9 503d 1f6f fb3d 7e00 3b3c
00000270: 56eb dbbd 97c7 053d b6b8 24bd 826e e4bd
00000280: 9f3f d4bd ba03 0abe ef27 b13d bc07 b0bd
00000290: 36ea 16be 9291 afbc ee77 043e a979 a63c
000002a0: 0567 9fbc 1aab 033d 299e 29bd c29d 233d
000002b0: 49ec 003e c560 c43c bbb7 8d3d 687a 6e3c
000002c0: 4f51 ee3d dff4 ea3c a238 b4bd 30b5 10bd
000002d0: ba11 683d b420 293b 03e7 cebc 9092 d33b
000002e0: 2a8e 47bc 28ff 9ebd 00ed 00be a92b a9bc
000002f0: 3203 b0bd 7e3c dbbc 0cc8 6abe 0a3e 6b3d
00000300: 4017 8dbd 152a 0abe b411 ca3d 5a7d db3d
00000310: bb4f 87bd 3c68 e9ba 9968 19bd 61e1 a1ba
00000320: 3028 923d 2588 b3bc d7a0 9e3d d715 62bd
00000330: a902 053d fd8f d53c cdbd da3c 3226 4d3c
00000340: 7b7c ccbd 0323 82bd 96ab a83a 9553 1e3e
00000350: 4f5c ed3d bdbe 3a3d 3ce3 9c3c 6253 ac3d
00000360: 9cf9 773c 9657 9e3d 55f6 04be 6078 e33d
00000370: dbae 03bd 27a6 f23d 81e2 173d b261 073e
00000380: e39b 0dbe 4fc0 a2bd bfe6 053d 67c0 533b
00000390: 61f0 3d3d 6b8b 77be 44ea 35be efe0 ebbd
000003a0: af50 973d 8972 c7bd b91e cf3d 3efd 6dbb
000003b0: 2038 bc3d c3e1 7c3c 5e32 b03d 6ec0 ac3d
000003c0: f625 15be 1210 cebc 8e53 e73d 737c 21bc
000003d0: 9b0d 8d3d b96b 76bd f8e8 4abe 524f 29be
000003e0: f40e d7bd 50d0 73bd d0f4 42bc 835e f2bd
000003f0: b939 333d 4767 f43d f5c0 9c3d 0b04 febd

bias f4 [32]
0.03903413 -0.003921517 -0.04439871 0.030641276 -0.06598255 0.031912025 0.00940538 -0.026576512
0.0101710325 0.04089466 0.01582619 -0.03608046 -0.029537495 -0.02219333 -0.0060271933 0.024718633
0.020246785 0.012939574 0.01177302 -0.042821787 -0.003096993 -0.017638758 -0.016170375 -0.012050185
-0.0093245655 -0.006677867 0.040745378 -0.007895136 -0.015835438 -0.00010322198 -0.007112323 0.0011650224
00000000: 40e2 1f3d 1280 80bb 6cdb 35bd 6a03 fb3c
00000010: dc21 87bd 2fb6 023d 0619 1a3c fcb6 d9bc
00000020: 67a4 263c 2981 273d eda5 813c 1bc9 13bd
00000030: 9ef8 f1bc c9ce b5bc c37f c5bb bb7e ca3c
00000040: 96dc a53c 8200 543c a0e3 403c e665 2fbd
00000050: ecf6 4abb 287f 90bc bc77 84bc 246e 45bc
00000060: 10c6 18bc 02d2 dabb a0e4 263d 9a5a 01bc
00000070: 52b9 81bc e178 d8b8 7d0e e9bb aab3 983a

weight f4 [64, 32, 3, 3]
-0.0018801936 0.07430349 -0.17657301 -0.031049775 0.019012561 -0.019849237 -0.06486474 0.07197388
-0.0006798022 0.114185825 -0.006628084 -0.046379793 -0.025110548 0.06520848 -0.030798629 0.035960395
-0.025641158 -0.043525368 0.08796014 -0.0104035335 -0.06669659 0.023709422 -0.049405888 0.085736774
0.0718148 -0.00894329 -0.04017599 0.01643572 0.065814584 0.07201588 0.028061237 -0.13501613
-0.07221941 0.08406532 -0.020859277 -0.045708798 0.0590234 0.01345643 -0.035402443 -0.053799752
-0.0009090901 -0.062047347 -0.059513662 0.023289677 -0.050664086 0.04429062 -0.0912681 -0.0042134216
0.060663506 0.045558847 0.07893596 0.020175535 -0.034698777 -0.04530096 -0.010768073 -0.02984919
0.06416446 0.028568856 0.029413167 -0.06748942 -0.07074445 -0.10480039 -0.19500652 0.027214916
-0.07842691 0.069300376 0.06459473 0.0032638032 0.02117245 0.05694645 0.0031010401 0.085040994
-0.016320925 -0.057536405 0.10638765 0.049270473 0.03842701 0.013908983 -0.05710467 0.09534719
0.07809252 -0.015832681 -0.039756645 -0.13415451 -0.09803906 -0.10789594 -0.073221095 0.19451359
0.099944666 0.050199606 -0.047805898 0.07367157 0.17838155 -0.03404277 0.070647776 -0.034650642
-0.009456957 -0.110893644 -0.025322797 -0.033558883 -0.024240362 -0.021974629 0.0678159 -0.01308748
-0.11902763 0.019434273 0.036569957 0.027256118 0.014023821 -0.12229223 -0.088371135 -0.027204882
0.09420016 -0.041944236 0.05359641 0.022713361 -0.019091731 0.08571565 -0.029896181 -0.004877513
0.0812475 -0.0072076255 -0.00012614926 -0.0010705695 -0.022168363 -0.097996294 -0.022454463 0.07133029
-0.012578329 0.011979537 0.0124121355 -0.111480184 -0.12244225 -0.0655305 -0.061497577 -0.08464145
0.1715459 0.009289836 0.10084839 0.045265697 0.079518184 0.13263103 -0.046445727 -0.098755404
0.043954294 0.013413627 0.06912771 0.012600115 0.03967398 -0.10455188 0.07456993 0.026543612
0.054960012 -0.064519316 -0.033660747 -0.15400405 -0.12064446 0.03641496 0.050534967 0.021956911
-0.027115041 -0.08551722 -0.052481536 0.032018222 0.09524893 -0.06375668 0.04960381 0.10450544
0.06389205 -0.119460665 -0.12521175 0.19274081 0.054467857 -0.027614279 -0.10247115 -0.029225826
0.00682106 -0.039951816 0.08720643 0.06779168 0.005225573 0.051949874 0.056436863 -0.23571317
0.12209134 -0.17490123 -0.118358634 0.10046338 0.060606673 0.032159276 -0.079234675 0.050592512
-0.022082029 -0.046729356 -0.01811125 -0.1101896 -0.06486932 -0.09060515 -0.017230473 -0.06484743
-0.056098443 -0.011679478 -0.005532975 -0.049065083 -0.062374335 -0.017473884 0.04784026 -0.08888409
0.017260868 0.03347071 -0.0056531136 -0.08063505 0.022402287 0.034569293 -0.027487228 -0.017478796
0.060228415 0.039866388 0.012702309 -0.055323612 0.007957198 0.036747202 -0.08058183 0.056975774
0.04429517 -0.03078289 0.0046567917 0.033896208 0.04894451 0.05531881 0.002597779 -0.08297061
-0.020017356 -0.08109926 0.0044679916 0.07746294 0.038001567 -0.05624328 0.060226843 0.027920479
-0.058912884 -0.10429345 -0.12799992 0.017613705 0.060109317 -0.03483588 -0.005019532 0.09482587
0.029595068 0.06944619 0.016533285 0.045555748 0.13397716 0.02553017 -0.017661287 0.094227925
00000000: d470 f6ba 6e2c 983d 8ecf 34be 195c febc
00000010: 3bc0 9b3c de9a a2bc ced7 84bd 0b67 933d
00000020: c134 32ba 42da e93d 6630 d9bb bdf8 3dbd
00000030: a3b4 cdbc 068c 853d 684d fcbc 354b 133d
00000040: 680d d2bc a847 32bd 7224 b43d 9573 2abc
00000050: 3998 88bd 433a c23c d45d 4abd c396 af3d
00000060: a313 933d e186 12bc 948f 24bd 34a4 863c
00000070: ccc9 863d 107d 933d aee0 e53c ab41 0abe
00000080: c5e7 93bd 702a ac3d 13e1 aabc 2639 3bbd
00000090: 85c2 713d 5c78 5c3c 2702 11bd 215d 5cbd
000000a0: 0150 6eba 5c25 7ebd 99c4 73bd fec9 be3c
000000b0: 2585 4fbd 156a 353d c5ea babd be10 8abb
000000c0: 4c7a 783d ea9b 3a3d 2da9 a13d 2a47 a53c
000000d0: 4e20 0ebd 808d 39bd 926c 30bc 4a86 f4bc
000000e0: a868 833d 3c09 ea3c e2f3 f03c e537 8abd
000000f0: 77e2 90bd 96a1 d6bd caaf 47be d1f1 de3c
00000100: 4a9e a0bd 5bed 8d3d 3e4a 843d 88e5 553b
00000110: d971 ad3c ae40 693d d23a 4b3b f929 ae3d
00000120: 76b3 85bc 4bab 6bbd c5e1 d93d d6cf 493d
00000130: a465 1d3d 81e2 633c 96e6 69bd 6345 c33d
00000140: f9ee 9f3d 8ab3 81bc ddd7 22bd cd5f 09be
00000150: b4c8 c8bd 8cf8 dcbd f1f4 95bd 922e 473e
00000160: caaf cc3d 1a9e 4d3d 1ed0 43bd 1fe1 963d
00000170: a7a9 363e 6e70 0bbd c8af 903d d5ed 0dbd
00000180: 5af1 1abc 351c e3bd c171 cfbc 0a75 09bd
00000190: b993 c6bc 2304 b4bc 10e3 8a3d df6c 56bc
000001a0: c2c4 f3bd a034 9f3c 61ca 153d 3948 df3c
000001b0: 2bc4 653c 5974 fabd edfb b4bd c6dc debc
000001c0: 03ec c03d b8cd 2bbd e987 5b3d 5f11 ba3c
000001d0: 4366 9cbc b08b af3d d6e8 f4bc 8bd3 9fbb
000001e0: 1765 a63d f22d ecbb ef46 04b9 5a52 8cba
000001f0: 6d9a b5bc 48b2 c8bd 6cf2 b7bc 9d15 923d
00000200: 5615 4ebc d245 443c 455c 4b3c b94f e4bd
00000210: 01c3 fabd db34 86bd e2e4 7bbd 7f58 adbd
00000220: baa9 2f3e 6534 183c 9a89 ce3d 8668 393d
00000230: 6eda a23d 6ed0 073e e03d 3ebd 4640 cabd
00000240: 6b09 343d d4c4 5b3c d492 8d3d b670 4e3c
00000250: 2f81 223d 4c1f d6bd 1fb8 983d fd71 d93c
00000260: c01d 613d b422 84bd dadf 09bd 3db3 1dbe
00000270: 7114 f7bd da27 153d c1fd 4e3d fbde b33c
00000280: 5d20 debc a723 afbd e1f6 56bd 8a25 033d
00000290: df11 c33d dd92 82bd 5d2d 4b3d f306 d63d
000002a0: d6d9 823d cba7 f4bd 8237 00be d95d 453e
000002b0: b019 5f3d 5737 e2bc 65dc d1bd 006b efbc
000002c0: 3383 df3b 84a4 23bd 4999 b23d 5dd6 8a3d
000002d0: 493b ab3b 64c9 543d 572a 673d cb5e 71be
000002e0: 060b fa3d 4f19 33be 0366 f2bd bfbf cd3d
000002f0: b43e 783d 72b9 033d ca45 a2bd 183a 4f3d
00000300: 5fe5 b4bc 4867 3fbd 0b5e 94bc 16ab e1bd
00000310: 35da 84bd 318f b9bd ec26 8dbc bbce 84bd
00000320: 7bc7 65bd 485b 3fbc f54d b5bb 78f8 48bd
00000330: 3b7c 7fbd 6425 8fbc 26f4 433d dd08 b6bd
00000340: aa66 8d3c 9518 093d c13d b9bb fd23 a5bd
00000350: 0085 b73c 8898 0d3d e52c e1bc b12f 8fbc
00000360: 12b2 763d f04a 233d 581d 503c 039b 62bd
00000370: e85e 023c 3c84 163d 1608 a5bd 6e5f 693d
00000380: da6e 353d 662c fcbc 0098 983b c0d6 0a3d
00000390: 0a7a 483d fa95 623d 803f 2a3b 7fec a9bd
000003a0: 70fb a3bc 5e17 a6bd 3b68 923b e4a4 9e3d
000003b0: 88a7 1b3d 5b5f 66bd 6cb0 763d 7db9 e43c
000003c0: a34e 71bd ce97 d5bd 6912 03be 9e4a 903c
000003d0: 3035 763d 11b0 0ebd e37a a4bb 1134 c23d
000003e0: 5b71 f23c ce39 8e3d d070 873c aa98 3a3d
000003f0: 4f31 093e a624 d13c 67ae 90bc 92fa c03d

bias f4 [64]
0.009195022 -0.008014007 -0.003114897 0.0511235 -0.013790148 -0.004089128 -0.046912517 -0.0072467085
-0.007893475 -0.016567815 0.03838431 0.04783432 0.015944585 0.025422892 -0.030095885 -0.0351013
-0.012648661 -0.00022433266 -0.010531385 -0.011185392 0.036220036 8.820652e-05 0.037433945 0.026709266
0.0073006353 -0.02548347 -0.030677319 -0.024377104 0.003452094 0.01828426 -0.018969525 -0.0028895186
-0.018733889 0.0044395593 -0.025938487 0.015840504 -0.016427347 0.0077855154 -0.045312613 -0.020939507
-0.02763281 -0.00022490407 -0.022511201 -0.006724642 0.009940885 -0.031312115 -0.012070919 0.016454514
0.02351486 0.027889773 0.012920571 0.002446742 0.010428857 -0.0042862366 0.015875895 -0.04500331
0.003482587 -0.016812027 -0.008954951 -0.005266064 0.010728467 0.039742008 -0.053501494 0.021069359
00000000: b8a6 163c 2e4d 03bc 4d23 4cbb e066 513d
00000010: 13f0 61bc 18fe 85bb 5727 40bd cc75 edbb
00000020: a253 01bc 3ab9 87bc de38 1d3d eced 433d
00000030: 389e 823c ab43 d03c a58b f6bc 61c6 0fbd
00000040: 543c 4fbc d73a 6bb9 d58b 2cbc ef42 37bc
00000050: 765b 143d 84fb b838 5654 193d 64cd da3c
00000060: 2b3a ef3b b6c2 d0bc 004f fbbc 7eb2 c7bc
00000070: 873c 623b dfc8 953c fa65 9bbc 145e 3dbb
00000080: d077 99bc b979 913b f37c d4bc f2c3 813c
00000090: a592 86bc a31d ff3b b899 39bd 5489 abbc
000000a0: 345e e2bc 3ad4 6bb9 6969 b8bc 635a dcbb
000000b0: 18df 223c 2241 00bd 1bc5 45bc 9ecb 863c
000000c0: 3ca2 c03c 1879 e43c cdb0 533c 8559 203b
000000d0: ccdd 2a3c 8f73 8cbb 2a0e 823c 6455 38bd
000000e0: 1d3c 643b 60b9 89bc c9b7 12bc f28e acbb
000000f0: 74c6 2f3c 84c8 223d 6224 5bbd a699 ac3c

weight f4 [500, 128]
0.12162039 0.021836821 -0.08720573 0.050627317 0.028720496 -0.0975572 -0.12466075 0.01791472
-0.15106225 -0.042431746 0.041318 0.028082402 0.03098048 0.13108729 0.11421756 -0.015627483
0.002784907 -0.0158907 -0.0050440775 -0.07009 0.03322851 0.027269289 -0.038454816 -0.033661425
-0.09853307 -0.101107895 -0.024755277 0.029889144 -0.01835863 0.011179752 0.064257234 -0.10617991
-0.03441609 0.013982438 0.056351133 0.12321422 0.04230087 0.05327761 -0.0017857562 -0.025230737
-0.05070142 -0.104917996 -0.061893094 0.05766929 0.11022022 -0.05970909 0.06519554 -0.13874109
-0.056965522 0.032838613 0.028592076 -0.07601069 -0.0037119149 0.10789763 0.07435443 0.1558469
-0.012717448 0.004688916 -0.008324985 0.025738142 0.04409598 -0.018044544 0.016378818 0.062801115
-0.09150089 0.10702851 -0.03430892 0.02580141 0.08267809 -0.0079484545 0.08565405 -0.14011316
0.0151110375 0.04923111 0.03766311 -0.05819354 0.041114226 -0.021047935 0.10256792 -0.012222062
-0.016157234 0.02101946 0.09351986 -0.052419376 -0.07660831 -0.02632835 0.029122699 -0.023422983
0.030539695 -0.06523531 0.019506123 0.1829731 0.14133675 -0.06800617 -0.096979186 -0.029361896
-0.031284068 -0.05038746 -0.027589949 0.06174044 0.009411224 -0.023959925 -0.0995047 -0.071113385
-0.0065864604 0.018298313 0.0082786055 -0.03058172 -0.021629335 -0.079531536 0.0848295 0.09600835
-0.0050177756 -0.13736802 0.06815374 -0.07412145 0.039969135 0.07123479 0.10180804 -0.05301362
0.03605529 0.029280612 0.019429006 0.008267102 0.08334561 -0.016567836 -0.07580604 0.041723493
0.07754816 -0.106756255 -0.036400363 0.055117838 -0.09127429 0.061817184 -0.030412324 -0.06874344
-0.031718016 0.0059596444 0.02059435 -0.042353492 -0.04760245 0.057017475 0.02058138 0.09196658
-0.080887735 -0.02949438 -0.06406048 0.08096689 -0.07440663 -0.034554552 -0.11825756 -0.06952019
-0.18478459 0.010945706 -0.12575006 0.10587959 0.09145708 0.021357652 0.09357218 -0.06964537
0.060839623 -0.092953086 -0.031989455 0.06510652 0.023032751 0.052170888 -0.07100856 -0.05108615
0.08684049 -0.04949276 -0.06897149 0.016201552 -0.07463404 -0.054630063 0.04718287 -0.07153241
-0.13410844 0.046841476 -0.08253141 -0.041899294 -0.032934327 0.07765811 0.115052305 -0.035378758
-0.03355231 -0.047255825 0.014120234 -0.023353271 -0.036830496 -0.05712922 0.011624368 0.017862452
0.016243795 0.0935793 0.048962627 0.02116702 0.07949515 0.10732393 -0.020774622 -0.14445786
-0.050348554 0.019765766 -0.062377516 -0.08823838 -0.09648181 0.09612382 -0.028732589 0.12595095
0.057398133 0.04606861 0.05481448 0.008171393 0.056126222 0.024014672 0.12445991 -0.12538064
-0.024238704 -0.079797424 0.11896178 -0.007049521 0.10836122 -0.14122616 -0.03713224 0.030076789
0.13231304 -0.09899589 -0.11337618 -0.035645984 0.053279325 -0.006475961 0.0033320233 -0.13107656
0.021760697 0.024077585 0.11727399 -0.053252097 -0.13869613 -0.00899388 0.07704757 0.06314528
0.04172769 -0.09199113 0.07128476 0.049270336 0.066330835 0.05693762 -0.008578175 0.07648095
-0.012082899 0.0026979886 0.031991303 -0.11710431 0.05916532 -0.062248234 0.055217113 -0.023730485
00000000: 1c14 f93d 22e3 b23c eb98 b2bd 975e 4f3d
00000010: 3f47 eb3c 12cc c7bd 234e ffbd e4c1 923c
00000020: 10b0 1abe e9cc 2dbd 103d 293d 110d e63c
00000030: c7ca fd3c bf3b 063e e5ea e93d 3505 80bc
00000040: fc82 363b 372d 82bc ca48 a5bb 598b 8fbd
00000050: 9e1a 083d d863 df3c cc82 1dbd 90e0 09bd
00000060: b5cb c9bd a811 cfbd 94cb cabc 14da f43c
00000070: d664 96bc 472b 373c 4c99 833d da74 d9bd
00000080: e3f7 0cbd 9816 653c 72d0 663d bd57 fc3d
00000090: ad43 2d3d a039 5a3d 0910 eaba b1b0 cebc
000000a0: 4bac 4fbd 3fdf d6bd 9d83 7dbd a236 6c3d
000000b0: 24bb e13d 8591 74bd 3d85 853d 2512 0ebe
000000c0: ae54 69bd c881 063d ee39 ea3c 7eab 9bbd
000000d0: 9943 73bb 6ff9 dc3d 2347 983d 5496 1f3e
000000e0: d85c 50bc 7aa5 993b 8565 08bc ccd8 d23c
000000f0: fc9d 343d 27d2 93bc df2c 863c df9d 803d
00000100: d264 bbbd c331 db3d 8387 0cbd 7b5d d33c
00000110: 2153 a93d 3c3a 02bc 646b af3d d379 0fbe
00000120: 4994 773c 8fa6 493d a244 1a3d 595c 6ebd
00000130: 6467 283d b86c acbc 210f d23d 0b3f 48bc
00000140: 2d5c 84bc 0131 ac3c 5787 bf3d b3b5 56bd
00000150: d1e4 9cbd 8dae d7bc ba92 ee3c 8ee1 bfbc
00000160: 622e fa3c 179a 85bd 4ecb 9f3c 4d5d 3b3e
00000170: 95ba 103e d246 8bbd 069d c6bd 5c88 f0bc
00000180: b923 00bd 1563 4ebd 5104 e2bc 8be3 7c3d
00000190: 8931 1a3c 9b47 c4bc 1fc9 cbbd e5a3 91bd
000001a0: 3cd3 d7bb 58e6 953c fda2 073c 8486 fabc
000001b0: 0130 b1bc 6ee1 a2bd 17bb ad3d 07a0 c43d
000001c0: 276c a4bb 34aa 0cbe 3094 8b3d fdcc 97bd
000001d0: adb6 233d 8ce3 913d bc80 d03d cf24 59bd
000001e0: b6ae 133d e5dd ef3c 9429 9f3c bd72 073c
000001f0: 1ab1 aa3d 45b9 87bc 3240 9bbd 41e6 2a3d
00000200: 92d1 9e3d 06a3 dabd 8c18 15bd 3ec3 613d
00000210: 04ee babd 0434 7d3d 4423 f9bc 5cc9 8cbd
00000220: c0ea 01bd 1f49 c33b 7bb5 a83c db7a 2dbd
00000230: c9fa 42bd 288b 693d 489a a83c f958 bc3d
00000240: 78a8 a5bd 339e f1bc 2432 83bd f8d1 a53d
00000250: 8162 98bd 1389 0dbd 0531 f2bd 9a60 8ebd
00000260: 2c38 3dbe 9e55 333c a0c4 00be 66d7 d83d
00000270: d94d bb3d 3ef6 ae3c c5a2 bf3d 3ba2 8ebd
00000280: f832 793d 305e bebd 6007 03bd 9156 853d
00000290: 2eaf bc3c 24b1 553d f06c 91bd b63f 51bd
000002a0: 6dd9 b13d ecb8 4abd ed40 8dbd 1eb9 843c
000002b0: bbd9 98bd c6c3 5fbd d342 413d 967f 92bd
000002c0: b953 09be d9dc 3f3d 3a06 a9bd 989e 2bbd
000002d0: 25e6 06bd 370b 9f3d 8ba0 eb3d 51e9 10bd
000002e0: 266e 09bd 538f 41bd 8e58 673c 5c4f bfbc
000002f0: 93db 16bd 5400 6abd 2274 3e3c 4754 923c
00000300: b511 853c 81a6 bf3d 098d 483d 7566 ad3c
00000310: 5ace a23d a6cc db3d 8a2f aabc c3ec 13be
00000320: 493a 4ebd d1eb a13c 917f 7fbd 53b6 b4bd
00000330: 4198 c5bd 91dc c43d 9b60 ebbc 49f9 003e
00000340: 4e1a 6b3d 70b2 3c3d 2685 603d 4ee1 053c
00000350: 9ce4 653d 6bba c43c d6e4 fe3d c863 00be
00000360: 3f90 c6bc d56c a3bd 3ca2 f33d abff e6bb
00000370: 7dec dd3d 979d 10be fa17 18bd 9963 f63c
00000380: 127d 073e 5bbe cabd c531 e8bd 8601 12bd
00000390: 6c3b 5a3d 4c34 d4bb 135e 5a3b ef38 06be
000003a0: 7d43 b23c 5b3e c53c 582d f03d df1e 5abd
000003b0: 5c06 0ebe 115b 13bc 1ecb 9d3d 5052 813d
000003c0: a7ea 2a3d d865 bcbd bffd 913d b1cf 493d
000003d0: 76d8 873d 6c37 693d 798b 0cbc 0ba2 9c3d
000003e0: 5af7 45bc bdd0 303b 5009 033d 62d4 efbd
000003f0: 5657 723d 01f8 7ebd 572b 623d 6f66 c2bc

bias f4 [500]
-0.008435306 -0.014677112 -0.013050679 -0.007719055 0.0004523416 -0.004462449 -0.0028420766 0.0056195194
-0.017068619 0.005884307 0.0025796974 -0.012121307 -0.014383579 -0.018877827 0.0056323563 -0.01443039
-8.2796834e-07 -0.009704488 -0.0037722294 0.008873644 -0.018657532 -0.011718566 -0.006962341 -0.008753651
-0.0051368144 0.0009975368 0.0023209634 -0.001157129 -0.005481435 0.007358098 0.003074055 0.006385578
-0.012180941 -0.008761657 -0.008943156 -0.009225952 -0.00015289598 -0.021680757 -0.010832988 -0.0012657131
-0.011666157 -0.017155565 -0.0013712097 0.015276633 -0.0035262124 -0.013998354 0.006890359 -0.016104607
-0.009490077 -0.016753089 0.003417201 -0.013247054 -0.0043337885 0.008962106 -0.002835004 -0.0070882426
-0.019744638 -0.0050296723 0.0045988844 -0.0025955164 -0.004267953 0.0029974175 0.00187123 -0.004727324
-0.029139178 0.003030753 -0.006532206 -0.0075651337 -0.008987873 0.0011656396 -0.0011280245 0.006321663
0.0012385187 0.0077318684 0.0009201699 -0.017374856 -0.022469673 -0.0072872164 -0.019021623 -0.002843931
-0.00931896 -0.024569906 -0.022084985 -0.003134591 -0.008362135 0.0056581255 -0.009763269 -0.005159287
0.0032807374 -0.005870913 -0.013137468 -0.00071457075 -0.02014299 -0.013632884 -0.010015255 -0.010469817
-0.014643032 0.005924243 -0.004005361 -0.0017551654 -0.016478244 -0.00908918 0.003921412 -0.015284062
-0.0023535837 -0.01390249 -0.02562089 -0.014128391 -0.011202415 0.003336882 -0.0030726185 -0.012470984
0.0020764994 -0.014494186 -0.010582078 -0.0021699516 -0.016100304 -0.008175164 -0.0042966013 -0.006282727
-0.028606772 -0.013280634 -0.020788658 -0.0058220574 -0.023349732 0.00059450365 -0.010803444 -0.015916059
-0.007912679 -0.018206371 0.006570604 -0.0013038968 -0.0125049595 0.0004710319 0.002574347 -0.0037787673
-0.016087508 -0.0067784158 -0.008520458 0.0026174567 -0.0019991712 -0.014412044 -0.006643037 0.005191507
0.0068862434 0.00061925873 -0.012290758 -0.007003347 -0.0025669867 -0.0153057305 -0.01487336 0.007588881
-0.008171941 -0.004305905 -0.007084948 0.012309371 0.010657876 -0.014464621 0.0014132739 -0.03307861
-0.01764666 0.0033397737 -0.0044029853 -0.011197837 -0.0048231855 -0.00038324555 -0.016771365 -0.007601743
0.0006138179 -0.009500862 0.006729541 -0.016429687 -0.011386396 -0.008676122 -0.007562686 0.0044505913
-0.014072589 0.004615585 -0.004330621 -0.008485458 0.0047717537 -0.01942173 0.011956272 0.0011214528
-0.00050103676 0.014171362 -0.018942935 0.0039311447 -0.017832043 -0.01916202 -0.007562035 -0.00812195
-0.0057028956 -0.012243232 -0.005805566 -0.009090559 -0.014665228 -0.015252937 0.0053379764 -0.007410621
0.0023148656 0.004661292 0.0023178805 0.008038402 -0.018407192 0.013070573 -0.00455993 -0.010603001
-0.010014979 -0.0091426885 -0.004104523 0.0020846417 -0.007233964 -0.00043257858 -0.021913134 -0.017032346
-0.0014294804 -0.013574718 -0.0149305435 -0.01696707 -0.007213241 -0.019052459 -0.0006950243 0.0107166665
-0.009316818 0.003006841 -0.011600174 -0.0066658217 -0.009391782 -0.0072715543 0.003695921 -0.0074561117
0.0046130843 -0.0073368517 -0.017340373 0.00040996593 -0.032431785 -0.00036881096 -0.0009985563 -0.020694677
-0.0038880685 0.003407521 -0.008080981 -0.01827038 0.006212127 0.00092812534 -0.002031204 -0.0032655145
-0.0071142875 -0.012698037 -0.013581168 -0.011154755 -0.023212306 0.009269125 -0.016351866 -0.0020334213
00000000: 3d34 0abc 4578 70bc 84d2 55bc 20f0 fcbb
00000010: 4328 ed39 bc39 92bb 2242 3abb f223 b83b
00000020: 7dd3 8bbc 25d1 c03b 2410 293b 7298 46bc
00000030: 1aa9 6bbc aca5 9abc a18f b83b 716d 6cbc
00000040: 8d41 5eb5 93ff 1ebc 8237 77bb c362 113c
00000050: aed7 98bc 3aff 3fbc 5924 e4bb 796b 0fbc
00000060: b952 a8bb c8bf 823a 4e1b 183b ceaa 97ba
00000070: 9c9d b3bb 331c f13b 1676 493b 1c3e d13b
00000080: 9292 47bc 0e8d 0fbc 5186 12bc 7328 17bc
00000090: b452 20b9 d89b b1bc d87c 31bc 49e6 a5ba
000000a0: 6923 3fbc d489 8cbc 2aba b3ba d84a 7a3c
000000b0: 0718 67bb 5a59 65bc 85c8 e13b cfed 83bc
000000c0: 457c 1bbc c63d 89bc 1ff3 5f3b 2c0a 59bc
000000d0: 7402 8ebb ccd5 123c 79cb 39bb 7d44 e8bb
000000e0: 82bf a1bc f3cf a4bb 3db2 963b 8a19 2abb
000000f0: 2fda 8bbb 5270 443b 0f44 f53a abe7 9abb
00000100: 49b5 eebc 999f 463b 1e0c d6bb f1e4 f7bb
00000110: df41 13bc 60c8 983a 39da 93ba f425 cf3b
00000120: cb55 a23a 9d5b fd3b 8f37 713a b755 8ebc
00000130: 5212 b8bc 9ac9 eebb 3cd3 9bbc 3f61 3abb
00000140: 8dae 18bc d446 c9bc 92eb b4bc b66d 4dbb
00000150: 5601 09bc cc67 b93b 1ef6 1fbc 3c0f a9bb
00000160: a401 573b ca60 c0bb 893e 57bc 0852 3bba
00000170: e902 a5bc 765c 5fbc 0617 24bc 9889 2bbc
00000180: 54e9 6fbc 2720 c23b 673f 83bb 940d e6ba
00000190: 62fd 86bc c9ea 14bc 307f 803b 016a 7abc
000001a0: 953e 1abb 45c7 63bc e7e2 d1bc c47a 67bc
000001b0: 568a 37bc 97af 5a3b fc5d 49bb 1953 4cbc
000001c0: e115 083b 0679 6dbc 7460 2dbc bf35 0ebb
000001d0: c9e4 83bc 20f1 05bc 81ca 8cbb 55df cdbb
000001e0: c058 eabc 0497 59bc fa4c aabc f5c6 bebb
000001f0: f047 bfbc 77d8 1b3a ee00 31bc 6562 82bc
00000200: 2ea4 01bc 8725 95bc 394e d73b 84e7 aaba
00000210: 9ae1 4cbc d5f4 f639 60b6 283b 32a5 77bb
00000220: f3c9 83bc 791d debb 6499 0bbc a389 2b3b
00000230: 8704 03bb 7e20 6cbc d5ad d9bb 841d aa3b
00000240: ffa5 e13b c055 223a 2d5f 49bc 557c e5bb
00000250: e43a 28bb e3c4 7abc 65af 73bc 26ac f83b
00000260: 9be3 05bc 8d18 8dbb da28 e8bb 3ead 493c
00000270: 5f9e 2e3c 05fd 6cbc 9a3d b93a 707d 07bd
00000280: ba8f 90bc 1be0 5a3b eb46 90bb 2277 37bc
00000290: d00b 9ebb 59ee c8b9 1a64 89bc 0b18 f9bb
000002a0: 9fe8 203a 81a9 1bbc 7b83 dc3b 8d97 86bc
000002b0: 028e 3abc 4b26 0ebc 69d0 f7bb 44d6 913b
000002c0: b790 66bc 553e 973b e2e7 8dbb 9706 0bbc
000002d0: 5f5c 9c3b 521a 9fbc 3de4 433c b6fd 923a
000002e0: 0258 03ba 002f 683c 372e 9bbc d5d0 803b
000002f0: 8114 92bc abf9 9cbc f3ca f7bb ed11 05bc
00000300: 5bdf babb d697 48bc 9e3c bebb 91f0 14bc
00000310: 6d46 70bc 74e7 79bc 31ea ae3b cbd4 f2bb
00000320: 00b5 173b c0bd 983b 95e7 173b 80b3 033c
00000330: aeca 96bc f525 563c 776b 95bb 36b8 2dbc
00000340: de15 24bc 37cb 15bc 3c7f 86bb 7c9e 083b
00000350: e30a edbb b7cb e2b9 2c83 b3bc 6b87 8bbc
00000360: 675d bbba 7e68 5ebc 3d9f 74bc 86fe 8abc
00000370: 0d5d ecbb e713 9cbc 4b32 36ba f594 2f3c
00000380: 91a5 18bc 6c0e 453b a80e 3ebc f76c dabb
00000390: fddf 19bc 3846 eebb 4437 723b 6652 f4bb
000003a0: 5b29 973b f969 f0bb 660d 8ebc b2f0 d639
000003b0: 31d7 04bd f85c c1b9 fde1 82ba e287 a9bc
000003c0: f7ce 7ebb b750 5f3b 1766 04bc c4ab 95bc
000003d0: 198f cb3b 704d 733a f31d 05bb 3e02 56bb
000003e0: f81e e9bb 6d0b 50bc 8c83 5ebc 6fc2 36bc
000003f0: bc27 bebc 87dd 173c 59f4 85bc 2643 05bb

weight f4 [100, 500]
-0.016307006 0.06601413 0.07033603 -0.15826139 -0.0013003143 -0.10326549 -0.14301766 -0.15947065
0.008346093 0.03398309 0.015541636 -0.02894153 -0.029679103 -0.07519821 -0.236212 -0.23670176
-0.019315692 0.086939484 -0.26005372 -0.27421403 -0.13840313 -0.061330326 0.09438445 0.051640064
0.030023646 -0.02718859 0.035113163 0.043610632 -0.15128371 -0.011971216 0.008010561 -0.081681594
0.002741536 0.06493568 -0.0477013 -0.112621665 0.08230584 -0.020204581 0.091625735 -0.08069389
0.029320246 0.030710796 0.033615943 -0.31757104 -0.21083905 -0.106311 0.03712776 -0.0030438825
0.11044128 -0.03401431 0.014145708 0.0074370266 0.0073670046 0.03108931 0.07682908 -0.0014296947
0.0045491904 -0.029379439 -0.087067306 -0.05423706 -0.18358561 -0.17708352 -0.11296015 0.04497295
-0.036068372 -0.031780843 -0.08886144 0.09429746 -0.03578597 -0.025933776 -0.091098465 -0.023402719
0.08965636 0.07243304 -0.12201966 -0.002400831 0.119506784 -0.071020305 -0.06992616 -0.13034214
0.051070277 0.07450486 -0.05575166 0.01665016 0.07114659 -0.078633964 -0.015896933 0.07859726
-0.20354354 -0.016409809 -0.10497882 -0.13495152 -0.0048114136 -0.051931977 0.034414537 0.0549719
0.09002143 -0.25638545 -0.20402208 -0.08365617 0.066495195 -0.20582043 -0.10379193 -0.051901165
-0.0025512099 0.0091356905 0.008629179 -0.043994065 -0.20094126 -0.0030675828 0.12542844 0.103697024
-0.0017953628 0.03152334 0.072819285 -0.07076978 -0.19023183 -0.029237272 -0.075492896 -0.11008934
0.14510119 0.021378262 0.08831607 0.06355256 -0.057288576 0.058847502 0.043254152 0.038289767
-0.00530267 -0.019198779 -0.12804082 -0.0142568145 -0.025337547 0.018695472 -0.10946547 0.03241487
-0.03837171 -0.10208625 -0.12342111 -0.015790813 0.11525666 0.030666124 0.05299647 -0.31879994
-0.20293246 -0.14486057 -0.022274707 0.0014199965 -0.00866827 -0.093831725 0.02513417 -0.11301257
0.061297126 0.043393835 -0.05369586 -0.05442866 0.0053722193 0.031218292 -0.05050267 0.06646993
0.0012953914 -0.09061066 -0.15003742 0.08127007 -0.054370575 -0.011937794 0.07180446 0.0077638673
-0.048088096 0.09218934 0.040811747 -0.046002936 0.081693724 -0.040790405 -0.07634684 0.0077248677
-0.1867169 0.04018162 0.019978786 0.16843414 0.027003514 0.06112658 -0.034978554 -0.020476408
0.073411 -0.07381685 0.0020867896 -0.13465515 0.1530682 0.02456615 -0.032838386 0.14858104
-0.089057885 0.02149556 -0.23199236 -0.08285742 -0.006573405 -0.034778655 -0.05795101 -0.23890063
-0.17526369 -0.069267526 -0.016546825 -0.06280058 -0.045728225 -0.03447965 0.04777814 0.06521597
-0.024491316 -0.0057992768 -0.022094453 0.029489823 -0.049727593 -0.10849016 -0.028331852 0.07082271
-0.044837683 0.08331554 0.045086358 0.023939958 0.033258867 0.052037038 -0.05589552 0.012471594
0.1112544 -0.06969833 0.12736079 -0.07610887 0.08592377 0.096749604 0.11167879 -0.17693835
-0.16592894 0.08045713 0.023726152 0.019606175 0.07217155 -0.088296585 0.060942188 -0.012315601
-0.01425645 -0.0024763609 -0.02067185 0.011442501 0.09520002 -0.11989369 0.035705175 -0.011774731
-0.107367985 -0.12335556 0.102368444 -0.015174992 -0.12784488 -0.00036097525 0.048819654 -0.22555067
00000000: 4596 85bc 6b32 873d 560c 903d 460f 22be
00000010: 4f6f aaba db7c d3bd 3973 12be 464c 23be
00000020: 0dbe 083c da31 0b3d 59a2 7e3c ca16 edbc
00000030: 9721 f3bc 8501 9abd 8fe1 71be f261 72be
00000040: f13b 9ebc 540d b23d c325 85be c865 8cbe
00000050: 8db9 0dbe 8235 7bbd a24c c13d 8884 533d
00000060: 26f4 f53c 9bba debc d2d2 0f3d 10a1 323d
00000070: 1eea 1abe eb22 44bc ba3e 033c ae48 a7bd
00000080: 57ab 333b fffc 843d 7062 43bd 30a6 e6bd
00000090: f78f a83d 1484 a5bc 46a6 bb3d d742 a5bd
000000a0: 0331 f03c 3595 fb3c dfb0 093d ac98 a2be
000000b0: 31e6 57be 95b9 d9bd 4713 183d e07b 47bb
000000c0: 0a2f e23d 9752 0bbd 66c3 673c 4db2 f33b
000000d0: ea66 f13b 02af fe3c 9158 9d3d 9864 bbba
000000e0: 6011 953b 26ad f0bc 5850 b2bd ae27 5ebd
000000f0: defd 3bbe 6255 35be a757 e7bd 8e35 383d
00000100: 6ebc 13bd a12c 02bd fdfc b5bd 071f c13d
00000110: 4f94 12bd 1273 d4bc d591 babd 0fb7 bfbc
00000120: c19d b73d c657 943d 72e5 f9bd 4357 1dbb
00000130: f9bf f43d 1873 91bd 7235 8fbd 6978 05be
00000140: 112f 513d 0196 983d da5b 64bd eb65 883c
00000150: 4eb5 913d d80a a1bd 493a 82bc 9af7 a03d
00000160: b86d 50be dd6d 86bc 23ff d6bd bb30 0abe
00000170: 10a9 9dbb a0b6 54bd 42f6 0c3d 372a 613d
00000180: 285d b83d f444 83be 2aeb 50be ed53 abbd
00000190: a22e 883d 97c2 52be dd90 d4bd 5196 54bd
000001a0: 3332 27bb ddad 153c 6661 0d3c 1f33 34bd
000001b0: 8cc3 4dbe 8009 49bb 5070 003e 1b5f d43d
000001c0: 6152 ebba 9e1e 013d 4722 953d bfef 90bd
000001d0: 22cc 42be 0183 efbc 059c 9abd 8576 e1bd
000001e0: 6895 143e 7721 af3c 0edf b43d d827 823d
000001f0: 6da7 6abd 140a 713d 442b 313d bbd5 1c3d
00000200: 05c2 adbb c246 9dbc 221d 03be 6a95 69bc
00000210: b090 cfbc 3f27 993c 6f2f e0bd 74c5 043d
00000220: a72b 1dbd 9912 d1bd 35c4 fcbd bc5b 81bc
00000230: af0b ec3d 8637 fb3c d412 593d bf39 a3be
00000240: 87cd 4fbe 5456 14be 7279 b6bc 2d1f ba3a
00000250: 5c05 0ebc d92a c0bd 2de6 cd3c 2273 e7bd
00000260: b212 7b3d bcbd 313d 31f0 5bbd 96f0 5ebd
00000270: 7109 b03b 81bd ff3c e3db 4ebd 6321 883d
00000280: 1fca a93a 1592 b9bd 69a3 19be ec70 a63d
00000290: aeb3 5ebd bd96 43bc 370e 933d 0a68 fe3b
000002a0: 06f8 44bd c4cd bc3d 382a 273d 936d 3cbd
000002b0: 0a4f a73d d713 27bd bb5b 9cbd e320 fd3b
000002c0: b732 3fbe 7b95 243d 8daa a33c 007a 2c3e
000002d0: 7936 dd3c dd5f 7a3d ac45 0fbd 24be a7bc
000002e0: 8258 963d 4a2d 97bd 85c2 083b 0ae3 09be
000002f0: e9bd 1c3e f33e c93c 8b81 06bd a125 183e
00000300: fb63 b6bd 7517 b03c 688f 6dbe 27b1 a9bd
00000310: b865 d7bb 1074 0ebd 0a5e 6dbd 5ea2 74be
00000320: 5378 33be 22dc 8dbd 358d 87bc 979d 80bd
00000330: 854d 3bbd 893a 0dbd 03b3 433d f38f 853d
00000340: 03a2 c8bc dc07 bebb 6dff b4bc a494 f13c
00000350: 29af 4bbd 1730 debd 3318 e8bc 7f0b 913d
00000360: b8a7 37bd 56a1 aa3d 79ac 383d bb1d c43c
00000370: 733a 083d ca24 553d b3f2 64bd a855 4c3c
00000380: 59d9 e33d ffbd 8ebd de6a 023e f8de 9bbd
00000390: cdf8 af3d a824 c63d d9b7 e43d 542f 35be
000003a0: 47e9 29be b5c6 a43d 595d c23c 219d a03c
000003b0: adce 933d d7d4 b4bd 849e 793d 60c7 49bc
000003c0: e393 69bc 714a 22bb 0358 a9bc 5479 3b3c
000003d0: 3af8 c23d d38a f5bd 973f 123d cdea 40bc
000003e0: bfe3 dbbd d7a1 fcbd 8ca6 d13d 88a0 78bc
000003f0: c5e9 02be 4741 bdb9 1ef7 473d c1f6 66be

bias f4 [100]
0.021814905 0.014913395 0.0039507207 0.015727263 0.036539458 -0.19072598 0.016905338 0.03965635
0.021966074 0.064270355 0.0047571347 0.012088305 0.032933164 -0.003991188 0.07330581 -0.016369134
0.034180313 0.010317332 0.011787673 0.0219099 0.030167302 0.002762548 0.07088871 0.0124235125
0.010784778 0.0766794 0.012179626 0.028415386 0.0038797755 0.011547795 0.011995971 0.0028325468
0.07268421 0.017927166 0.0104664145 0.01450471 0.020584367 0.02036387 0.015898537 0.008881124
0.008995107 0.056582864 0.041668165 0.07164741 0.058431555 0.002896806 0.013017514 0.06505227
0.011254568 0.016316464 0.02872146 0.011448867 0.016598426 0.050143063 0.0362754 0.05501725
0.024508772 -0.006209522 0.01319541 0.08248839 0.03328541 0.030026626 0.041211195 0.043111056
0.031503074 0.009622651 0.029626675 0.027754417 0.019606354 0.011379147 0.04021824 0.014115829
0.00047863167 0.047191333 0.018523544 -0.005079328 0.03586445 0.026875176 0.035824593 0.026513672
0.011833797 -0.006303218 0.07428137 0.047258656 0.01072197 0.070163846 0.030458508 0.022435054
0.017547129 0.03082405 0.011988639 0.06774529 0.021143502 0.006350743 0.06610813 0.05694082
0.05469111 0.0037795168 0.019009119 0.033595923
00000000: 2cb5 b23c 5057 743c 0c75 813b 76d6 803c
00000010: 66aa 153d ac4d 43be 107d 8a3c b26e 223d
00000020: 32f2 b33c 2da0 833d bde1 9b3b 070e 463c
00000030: ede4 063d 83c8 82bb 5b21 963d 9018 86bc
00000040: a800 0c3d 070a 293c 1621 413c 647c b33c
00000050: 6b21 f73c dd0b 353b 1a2e 913d fd8b 4b3c
00000060: a3b2 303c 170a 9d3d 0e8d 473c 62c7 e83c
00000070: d543 7e3b f632 3d3c c08a 443c 40a2 393b
00000080: 76db 943d fedb 923c 537b 2b3c 2aa5 6d3c
00000090: 8ca0 a83c 21d2 a63c a63d 823c 2282 113c
000000a0: 3760 133c 6fc3 673d 3dac 2a3d e1bb 923d
000000b0: ed55 6f3d 57d8 3d3b 6947 553c 203a 853d
000000c0: 1465 383c 1baa 853c 4449 eb3c 0794 3b3c
000000d0: 6cf9 873c d062 4d3d 8495 143d c559 613d
000000e0: 9fc6 c83c 3f79 cbbb 9031 583c acef a83d
000000f0: 4856 083d 66fa f53c 12cd 283d 3895 303d
00000100: 5e09 013d 53a8 1d3c a4b3 f23c 3b5d e33c
00000110: 819d a03c 9a6f 3a3c e2bb 243d 1446 673c
00000120: dbf0 fa39 b34b 413d b0be 973c 7e70 a6bb
00000130: 9ae6 123d 5429 dc3c cfbc 123d 3333 d93c
00000140: 8be2 413c 3a8b cebb d520 983d 4b92 413d
00000150: 34ab 2f3c 10b2 8f3d 1f84 f93c b8c9 b73c
00000160: ffbe 8f3c b882 fc3c ff6b 443c 0bbe 8a3d
00000170: 2335 ad3c e519 d03b b363 873d c73a 693d
00000180: c903 603d c5b1 773b 03b9 9b3c e19b 093d

weight f4 [20, 100]
-0.18478923 -0.2034924 -0.27709526 0.13517648 0.09423162 0.0063076275 0.00015801699 -0.05855157
-0.3758263 0.05010682 -0.052490458 -0.2631868 -0.17971869 0.17758922 0.16989104 -0.2238415
-0.08219566 0.0008002416 0.07148172 -0.11196401 -0.311505 -0.29257303 0.16907907 -0.34828553
0.17760682 -0.111717924 0.12748824 0.06843383 -0.3313654 0.08824858 0.12618038 -0.24791226
0.22872256 -0.08840272 0.15138729 -0.12364087 -0.28557712 0.15423723 0.10534202 -0.15945843
0.08452371 0.09567167 -0.30494052 -0.0011878931 -0.13298506 -0.33263108 -0.25019646 0.06809376
-0.0256789 -0.15792595 0.15930653 -0.050842993 -0.16504046 -0.119561955 -0.24677375 -0.11546541
-0.3404581 -0.214839 0.037301183 -0.087430425 -0.07609221 0.06246931 -0.25654277 -0.05986407
0.07534839 -0.10931749 -0.18502799 -0.17011002 0.15005593 0.1953099 0.10177641 -0.010416429
-0.42879343 0.11956278 0.25123647 -0.1761981 0.04267791 -0.18866594 -0.09730634 -0.1068739
-0.43447134 0.16393654 0.1728017 -0.056165658 -0.39586172 0.042343512 0.13049188 -0.012530879
0.099451795 0.15125133 0.12053232 0.046917606 -0.019803917 0.10048686 -0.018892467 0.17531578
0.05860797 0.03496975 -0.004386003 -0.062281504 -0.19524133 -0.17860726 0.0473533 -0.40640023
-0.059001405 -0.27277094 -0.40059564 0.021764068 -0.24420977 -0.10674576 -0.0020777795 -0.16926673
-0.096375294 -0.28902313 -0.040758587 0.06901737 0.11137233 -0.18704224 -0.10237955 -0.27874348
-0.255592 0.14722751 0.08983611 -0.069022395 -0.08014523 0.027538933 0.11805139 0.056671634
-0.07593016 -0.12635222 -0.040792584 0.004335683 0.10346792 -0.0036749286 -0.19910268 -0.14330524
-0.04613639 -0.21994898 -0.10808198 -0.004400424 -0.41705084 -0.11507045 0.14987722 -0.18645714
-0.0919813 0.13704361 0.20108035 0.0030400767 0.021176105 -0.032878615 -0.092746094 -0.007970205
0.12747851 0.14428684 0.016322792 0.0055967825 -0.16378385 0.102173716 0.057510726 -0.17669444
-0.030323997 -0.23572926 0.1528936 0.14830083 -0.039274167 0.07112025 0.076381326 0.07003653
0.086141326 -0.16293186 -0.014502123 0.020315815 -0.16660415 -0.2219202 -0.27119088 0.15247911
-0.18143946 -0.2375152 -0.08650613 -0.18568645 0.09025689 0.20442145 -0.09469813 -0.08892828
0.08941881 0.1430137 -0.097875364 -0.13540688 -0.048929468 0.1212034 0.13842663 -0.13026567
0.059428062 0.08916082 0.10534423 0.19467452 0.16041161 -0.09357299 -0.01011628 -0.13135175
0.04151256 -0.15340368 0.14871731 -0.4458677 -0.26206157 -0.20634076 -0.39159685 0.0126310745
-0.09652037 -0.26297086 0.07570242 -0.16654207 0.18749784 -0.4140667 0.057346653 -0.02101666
0.19824882 0.098458074 -0.17148829 -0.29418227 -0.029386692 0.12604463 -0.16269732 0.10746484
-0.015733162 0.052750386 -0.10186909 0.059270192 0.16612288 -0.35910064 -0.11669859 0.09502213
0.15599956 -0.054123323 -0.34164804 -0.057338044 -0.07901197 0.042343855 0.074579105 0.07696807
-0.5326289 -0.060286995 -0.21211113 -0.15612008 -0.12559232 -0.13020834 -0.07073127 0.10842645
0.050443225 0.06170026 -0.13267702 0.20284428 0.057847604 0.09175234 -0.12049841 -0.030420462
00000000: 6339 3dbe 5060 50be 6edf 8dbe b46b 0a3e
00000010: 82fc c03d 37b0 ce3b 5db1 2539 c5d3 6fbd
00000020: 4e6c c0be cf3c 4d3d 3c00 57bd 6cc0 86be
00000030: 2d08 38be f3d9 353e ebf7 2d3e b536 65be
00000040: 3356 a8bd 4ec7 513a 0265 923d 634d e5bd
00000050: 957d 9fbe 22cc 95be 1023 2d3e 7b52 b2be
00000060: 90de 353e 5ecc e4bd 478c 023e 0927 8c3d
00000070: baa8 a9be acbb b43d 6e35 013e b6dc 7dbe
00000080: 3f36 6a3e 7c0c b5bd 4505 1b3e 6d37 fdbd
00000090: 2a37 92be 5df0 1d3e 8fbd d73d 1249 23be
000000a0: c41a ad3d 82ef c33d 2a21 9cbe 14b3 9bba
000000b0: 3c2d 08be 9f4e aabe c019 80be be74 8b3d
000000c0: 8e5c d2bc 57b7 21be 4021 233e be40 50bd
000000d0: 5e00 29be e6dc f4bd 42b2 7cbe 2179 ecbd
000000e0: 8650 aebe c1fe 5bbe 20c9 183d b90e b3bd
000000f0: 3cd6 9bbd d2df 7f3d 9359 83be 0734 75bd
00000100: 4250 9a3d d9e1 dfbd fa77 3dbe 5231 2ebe
00000110: 43a8 193e 52ff 473e 2770 d03d aba9 2abc
00000120: d08a dbbe 55dd f43d 11a2 803e 466d 34be
00000130: 08cf 2e3d a531 41be 8c48 c7bd b4e0 dabd
00000140: 0773 debe fbde 273e eef2 303e f60d 66bd
00000150: 63ae cabe 6470 2d3d aa9f 053e 514e 4dbc
00000160: 62ad cb3d a1e1 1a3e a6d9 f63d ad2c 403d
00000170: d33b a2bc 0ecc cd3d 60c4 9abc fb85 333e
00000180: e90e 703d 713c 0f3d 76b8 8fbb e41a 7fbd
00000190: 58ed 47be d2e4 36be 89f5 413d b113 d0be
000001a0: 75ab 71bd a2a8 8bbe df1a cdbe 8f4a b23c
000001b0: 2012 7abe 859d dabd 5b2b 08bb 4254 2dbe
000001c0: 6960 c5bd d7fa 93be 7af2 26bd fb58 8d3d
000001d0: 2d17 e43d 0088 3fbe 5fac d1bd 77b7 8ebe
000001e0: f4dc 82be cfc2 163e fffb b73d 9d5b 8dbd
000001f0: 2f23 a4bd 5499 e13c edc4 f13d 8420 683d
00000200: 4681 9bbd 7a62 01be 2016 27bd 5812 8e3b
00000210: fde6 d33d 12d7 70bb 93e1 4bbe 9cbe 12be
00000220: 83f9 3cbd 4e3a 61be 165a ddbd 6f31 90bb
00000230: b087 d5be 0eaa ebbd 6a79 193e 9fee 3ebe
00000240: b160 bcbd 2955 0c3e 02e8 4d3e 063c 473b
00000250: 8379 ad3c baab 06bd aaf1 bdbd 7695 02bc
00000260: ba89 023e eebf 133e 60b7 853c 3765 b73b
00000270: f4b6 27be 7440 d13d 5e90 6b3d 63ef 34be
00000280: 086a f8bc 0363 71be 2490 1c3e 2cdc 173e
00000290: f3dd 20bd 7ea7 913d d06d 9c3d 506f 8f3d
000002a0: dd6a b03d 9cd7 26be 509a 6dbc 5a6d a63c
000002b0: 479a 2abe 0d3f 63be 88d9 8abe 7c23 1c3e
000002c0: 44cb 39be 2f37 73be 202a b1bd 9724 3ebe
000002d0: 9bd8 b83d db53 513e 18f1 c1bd 0820 b6bd
000002e0: 3621 b73d 2f72 123e e172 c8bd 1aa8 0abe
000002f0: 446a 48bd 7d39 f83d b6bf 0d3e 5d64 05be
00000300: d76a 733d f399 b63d b7be d73d c258 473e
00000310: f142 243e 32a3 bfbd c1be 25bc 1381 06be
00000320: 1309 2a3d db15 1dbe 5a49 183e c548 e4be
00000330: ef2c 86be fe4a 53be 627f c8be 91f2 4e3c
00000340: 79ac c5bd 1ea4 86be df09 9b3d 018a 2abe
00000350: 6fff 3f3e 8d00 d4be 53e4 6a3d 212b acbc
00000360: bd01 4b3e 63a4 c93d a09a 2fbe 0f9f 96be
00000370: 5cbc f0bc d811 013e 209a 26be 8716 dc3d
00000380: d5e2 80bc ca10 583d bea0 d0bd 4dc5 723d
00000390: 1e1c 2a3e 0adc b7be acff eebd f69a c23d
000003a0: 59be 1f3e 6bb0 5dbd 7eec aebe 4cdb 6abd
000003b0: 07d1 a1bd c070 2d3d eebc 983d 6fa1 9d3d
000003c0: 5e5a 08bf 7fef 76bd a933 59be f1dd 1fbe
000003d0: 469b 00be 5655 05be 8edb 90bd b00e de3d
000003e0: 8e9d 4e3d 69b9 7c3d 7cdc 07be 69b6 4f3e
000003f0: 9cf1 6c3d a7e8 bb3d dfc7 f6bd 5534 f9bc

bias f4 [20]
0.07917285 0.14981738 0.19615419 0.13157451 0.14249264 0.14179593 0.09679222 0.18790594
0.16747078 0.10098313 0.102580935 0.07588437 0.09562804 0.050873194 0.14442164 0.14968525
0.15338804 -0.096898794 0.015486276 0.090890914
00000000: 6025 a23d ba69 193e a5dc 483e 78bb 063e
00000010: 97e9 113e f432 113e 003b c63d 6a6a 403e
00000020: 767d 2b3e 3ed0 ce3d f415 d23d 4469 9b3d
00000030: a2d8 c33d 6960 503d 44e3 133e 1747 193e
00000040: c111 1d3e e072 c6bd 26ba 7d3c 0425 ba3d
